…
[34m[1mhyperparameters: [0mlr0=0.01, lrf=0.01, momentum=0.937, weight_decay=0.0005, warmup_epochs=3.0, warmup_momentum=0.8, warmup_bias_lr=0.1, box=0.05, cls=0.5, cls_pw=1.0, obj=1.0, obj_pw=1.0, iou_t=0.2, anchor_t=4.0, fl_gamma=0.0, hsv_h=0.015, hsv_s=0.7, hsv_v=0.4, degrees=0.0, translate=0.1, scale=0.5, shear=0.0, perspective=0.0, flipud=0.0, fliplr=0.5, mosaic=1.0, mixup=0.0, copy_paste=0.0
[34m[1mTensorBoard: [0mStart with 'tensorboard --logdir runs/train', view at http://localhost:6006/

                 from  n    params  module                                  arguments                     
  0                -1  1       928  models.common.CBRM                      [3, 32]                       
  1                -1  1      9632  models.common.Shuffle_Block             [32, 128, 2]                  
  2                -1  3     27456  models.common.Shuffle_Block             [128, 128, 1]                 
  3                -1  1     52736  models.common.Shuffle_Block             [128, 256, 2]                 
  4                -1  7    242816  models.common.Shuffle_Block             [256, 256, 1]                 
  5                -1  1    203776  models.common.Shuffle_Block             [256, 512, 2]                 
  6                -1  3    404736  models.common.Shuffle_Block             [512, 512, 1]                 
  7                -1  1    131584  models.common.Conv                      [512, 256, 1, 1]              
  8                -1  1         0  torch.nn.modules.upsampling.Upsample    [None, 2, 'nearest']          
  9           [-1, 4]  1         0  models.common.Concat                    [1]                           
 10                -1  1    361984  models.common.C3                        [512, 256, 1, False]          
 11                -1  1     33024  models.common.Conv                      [256, 128, 1, 1]              
 12                -1  1         0  torch.nn.modules.upsampling.Upsample    [None, 2, 'nearest']          
 13           [-1, 2]  1         0  models.common.Concat                    [1]                           
 14                -1  1     90880  models.common.C3                        [256, 128, 1, False]          
 15                -1  1    147712  models.common.Conv                      [128, 128, 3, 2]              
 16          [-1, 11]  1         0  models.common.Concat                    [1]                           
 17                -1  1    296448  models.common.C3                        [256, 256, 1, False]          
 18                -1  1    590336  models.common.Conv                      [256, 256, 3, 2]              
 19           [-1, 7]  1         0  models.common.Concat                    [1]                           
 20                -1  1   1182720  models.common.C3                        [512, 512, 1, False]          
 21      [14, 17, 20]  1     16182  models.yolo.Detect                      [1, [[10, 13, 16, 30, 33, 23], [30, 61, 62, 45, 59, 119], [116, 90, 156, 198, 373, 326]], [128, 256, 512]]
Model Summary: 308 layers, 3792950 parameters, 3792950 gradients, 8.0 GFLOPs

Transferred 12/481 items from yolov5x.pt
Scaled weight_decay = 0.0005
[34m[1moptimizer:[0m SGD with parameter groups 79 weight (no decay), 82 weight, 82 bias
…
